results/checkpoint.pth (torch, 117552 bytes, 36 tensors)

embed.weight f4 [9, 32]
000000 a0 6c 7c bc 23 97 9b be 53 a3 ce ba 25 d5 98 ba
       -0.015406758 -0.30388746 -0.0015765227 -0.0011660202
000010 94 6f 2c be 19 52 ac be 2a db 39 be bd a5 89 be
       -0.16839439 -0.33656386 -0.1815001 -0.2688426
000020 c6 4f 62 ba 90 51 90 ba dc dd 9a bd bd 9f 0e bb
       -0.0008633103 -0.0011010636 -0.075618476 -0.0021762692
000030 d4 7d a6 bd 66 6f 3a be f2 3e b3 be 66 40 83 be
       -0.081294686 -0.18206558 -0.3500896 -0.2563507
000040 b2 e1 82 bc 8d ed b2 bb 38 1c bc bc c0 17 1e bd
       -0.01597676 -0.005460447 -0.022962674 -0.03859687
000050 39 a5 c7 bb 70 4f 40 bd 02 3c 01 3f ba 2d 9c be
       -0.006092694 -0.046950758 0.5048219 -0.30503637
000060 54 bb d4 bd 58 cc bb be 86 7e 36 bb 36 7c 98 be
       -0.103872925 -0.3667934 -0.002784641 -0.29782265
000070 cd 5d 89 be 5e d0 4f ba 8e 47 37 ba 91 8c 39 bb
       -0.26829377 -0.00079274725 -0.00069915585 -0.0028312544
000080 04 b2 07 bb d4 e8 c1 bd 60 3b 3d bc e5 13 b0 be
       -0.002070547 -0.094682366 -0.011549801 -0.34390178
000090 4f 85 42 3f 20 1e 8d bb 53 75 53 3f 9b 69 be be
       0.7598466 -0.0043065697 0.826009 -0.37189946
0000a0 d4 0f bf bd 02 49 7c be 47 e4 95 be 55 e3 68 be
       -0.09329191 -0.24637225 -0.29275724 -0.2274297
0000b0 15 f8 a8 bc 88 40 20 3f ca 4d ae ba d0 2c 06 be
       -0.020626107 0.62598467 -0.001329833 -0.13103032
0000c0 92 ad 8d bb 1c 16 61 bb 7b aa 66 bc 1c f7 0c be
       -0.0043236697 -0.0034345454 -0.014078732 -0.1376614
0000d0 00 a9 9a be 3a 2a b1 bb a8 0b b3 bd 9c aa 99 be
       -0.30207062 -0.005406645 -0.08742458 -0.30012977
0000e0 69 d2 71 ba 1c d1 a0 bb 86 1b 1e be b1 ca c0 be
       -0.0009224774 -0.0049077403 -0.15440187 -0.3765464
0000f0 9c fb 2a bc b0 07 e8 bd 38 db 87 bd 44 ad 02 be
       -0.010435965 -0.11329591 -0.066336095 -0.12761408
000100 9d 05 42 bb 44 b4 04 bb 37 04 cf ba 51 8b 3b bb
       -0.0029605397 -0.0020249048 -0.0015794103 -0.0028616975
000110 1a e2 68 bb 22 50 68 ba 00 02 b2 ba fc 5f 03 3e
       -0.0035535158 -0.00088620384 -0.0013580918 0.12829584
000120 14 42 1b bb 6c 73 bb be 2c c9 aa bc 18 a8 19 bd
       -0.0023690509 -0.36611497 -0.02084788 -0.037513822
000130 52 41 84 be 5d ce fc ba 49 a2 9e be a2 93 a1 bc
       -0.25831085 -0.0019287575 -0.3098319 -0.019723717
000140 11 1d a1 be d0 b6 e0 bd ea c1 b7 be 77 84 2a bb
       -0.31467488 -0.10972369 -0.35890132 -0.0026018897
000150 22 02 e6 ba 26 bf 1d bb 48 1b 9e bb 93 3b 42 be
       -0.0017548243 -0.0024070232 -0.0048250295 -0.18968038
000160 d8 bf 09 bb 74 18 66 ba 91 6d 97 be 4b a9 82 be
       -0.0021018889 -0.00087774475 -0.2957578 -0.25519785
000170 68 47 c7 bd 88 ba 74 be b0 53 8e bd 47 c6 a9 ba
       -0.097304165 -0.23899281 -0.06949556 -0.0012952768
000180 3d fc ed ba e4 cb 9e be ad 5f 53 be 94 66 eb ba
       -0.0018156838 -0.3101493 -0.20641966 -0.0017959648
000190 b0 56 f0 bc 93 f1 24 be 20 cc ca bb 80 c5 78 bd
       -0.02933821 -0.16107778 -0.0061888844 -0.060735226
0001a0 2a 7e e0 ba dc ef 40 bc fa 31 19 ba df 7a 6e bb
       -0.0017127444 -0.011775937 -0.0005843934 -0.0036389155
0001b0 72 b3 f6 3e b2 c2 41 bc 0c 31 c9 bd a1 46 b5 be
       0.4818378 -0.011826204 -0.09823808 -0.35405448
0001c0 50 da 16 bd be c1 94 be 36 ad 9c be b6 77 ac be
       -0.036829293 -0.29054064 -0.306009 -0.33685082
0001d0 88 c7 c3 bd ed d7 90 be 7d b2 9b ba 23 1f 59 bb
       -0.09559542 -0.28289738 -0.0011878755 -0.0033130131
0001e0 bd 18 5c 3f ab 0b bd be 89 31 21 bc ac 94 89 bb
       0.8597525 -0.36922964 -0.00983847 -0.0041986313
0001f0 44 4c 4e bb c5 4d dd ba c4 ef 29 bb d4 5f 96 bd
       -0.0031478563 -0.0016884139 -0.0025930265 -0.073424965
000200 88 4b 1f bb cd f5 7e be 9b 94 a5 bb 8c 20 b4 bb
       -0.0024306495 -0.24898453 -0.0050531155 -0.005497044
000210 88 55 cf ba e0 fd 27 be fc 38 9e be b0 3f ac bc
       -0.0015818337 -0.1640544 -0.3090285 -0.021026462
000220 4a 20 f2 ba dc 75 37 bb d4 33 c5 bd 1c d0 42 be
       -0.0018472758 -0.0027993834 -0.09629026 -0.190247
000230 79 ff 5c bc 75 55 93 ba cf 4e d7 ba 29 be 3b bb
       -0.013488644 -0.0011240678 -0.0016426685 -0.002864728
000240 b6 89 87 be 57 3c 90 ba 9c b5 7d bc 1d 82 c0 be
       -0.26472253 -0.0011004311 -0.015485194 -0.3759927
000250 16 8a 25 bb 09 c6 2a bb 8f 35 ba ba 08 c0 9a bd
       -0.0025259308 -0.002605798 -0.0014206636 -0.07556158
000260 02 21 56 3e 28 b9 c6 3f 79 a4 83 bb ce b3 56 ba
       0.20911029 1.5525255 -0.0040174094 -0.0008190245
000270 99 09 82 bb 24 15 61 bb 80 9a b9 bc f0 e7 e4 bc
       -0.0039684293 -0.0034344876 -0.02265668 -0.027942628
000280 87 43 79 bb b9 93 2b be ae e7 8b be f5 cd a9 bb
       -0.0038034634 -0.1675557 -0.27325195 -0.0051820227
000290 b4 09 bc bd 1a 23 1b 3f f4 2c 82 bd f5 a3 6e be
       -0.09181538 0.60600436 -0.063562304 -0.23304732
0002a0 c0 18 d4 bb b8 a6 34 bd 9f 12 37 bb d8 1b 97 be
       -0.006472677 -0.044104308 -0.0027934683 -0.2951343
0002b0 2a d5 a5 be 26 47 b1 ba 08 61 7a ba 06 9f 77 be
       -0.32389194 -0.0013525232 -0.0009551202 -0.24181756
0002c0 49 0e 45 be 75 8f 25 bb 19 fd 6a bb 24 2d 33 3f
       -0.1924373 -0.002526251 -0.0035856424 0.69990754
0002d0 9c 96 a3 bd 10 4a a4 bc 0b 35 9a be bb 3c b4 bb
       -0.07987711 -0.020054847 -0.30118594 -0.0055004037
0002e0 ed ba c7 ba e0 d7 65 bc df 44 be be ac 62 c1 3e
       -0.0015238203 -0.014028519 -0.3716192 0.37770593
0002f0 60 b7 5c be b8 67 92 bb b8 00 a8 ba 00 9f 79 bc
       -0.21554327 -0.0044679306 -0.0012817597 -0.015235662
000300 62 10 3f be 95 0d 11 40 62 22 0a 40 e9 a4 ee ba
       -0.18658593 2.266454 2.1583486 -0.0018207106
000310 30 ce 74 be 8a ee 4a be 81 f1 af be a5 a8 51 be
       -0.2390678 -0.19817558 -0.3436394 -0.20474489
000320 d8 f3 ae be d8 43 0a bd 88 19 8b be c9 f0 eb 3f
       -0.34170413 -0.033756107 -0.27167916 1.8432857
000330 1f 7d 9e be 4d 08 87 be 42 61 71 be 34 d9 cd bd
       -0.30954835 -0.2637352 -0.23572257 -0.10051194
000340 f4 45 12 bb fc 8f db 3f 7d a3 9d bb cc d9 ba bd
       -0.0022319527 1.7153316 -0.004810749 -0.09123573
000350 f2 70 a2 ba a7 b9 2e 3f cc b1 c0 ba 1b 54 f3 b9
       -0.001239328 0.68252033 -0.0014701425 -0.00046411235
000360 ef fe 95 bb 84 9a a7 bb 6e 03 16 40 ac 7c a6 ba
       -0.0045775096 -0.0051148552 2.3439593 -0.001270195
000370 74 7c d1 ba 8b 1c 5c be 54 88 a4 bd 98 e1 da bd
       -0.0015982524 -0.21495263 -0.08033815 -0.1068756
000380 2c 94 ea bd af bd bd bb f5 46 b8 be 14 05 5e be
       -0.11454043 -0.0057904343 -0.35991636 -0.21681625
000390 a8 e2 12 bd 35 ec 5a 3f 11 73 ab 3f f6 7a 86 be
       -0.035860687 0.85516673 1.339449 -0.26265687
0003a0 f5 8a f6 bb a4 f2 a5 ba e6 03 51 be 1a 2f 50 bb
       -0.007523889 -0.0012660814 -0.20411643 -0.0031766356
0003b0 b5 51 4d be 80 19 27 bc 54 41 57 be 40 3f db bd
       -0.200507 -0.010198951 -0.21021014 -0.10705423
0003c0 10 f7 1a be fb 62 a1 3f bf cb 19 bc 60 05 be be
       -0.1513331 1.2608331 -0.009386956 -0.37113476
0003d0 17 7c a6 bb 13 40 dc 3f 06 97 2a be 1b 42 6a be
       -0.0050807106 1.7207054 -0.16659173 -0.2287678
0003e0 f0 d4 99 bd b4 01 ad be 26 bf 11 be c6 1b b0 bb
       -0.07511318 -0.33790362 -0.14233074 -0.0053744046
0003f0 c2 20 92 be ae 08 ba be 2b e3 68 be b0 13 8f be
       -0.28540617 -0.36334747 -0.22742908 -0.27944708

enc.0.weight f4 [32, 33]
000000 35 cc 25 3e 45 32 2e bf f9 21 b6 bf 7d 3c fa bd
       0.1619118 -0.68045455 -1.4229118 -0.122185685
000010 5d 9a 0c bf 01 12 f8 be fc a8 02 bf 38 cd 6e 3e
       -0.5492304 -0.48451236 -0.510391 0.23320472
000020 ac e0 8c 3d 92 4a 8f be 6e 4f 58 3e 56 fd 40 bd
       0.0687879 -0.2798658 0.2112405 -0.0471166
000030 d9 01 e2 bd 61 71 3e 3e 9a 77 39 be 4b 6a a1 3d
       -0.11035509 0.18597938 -0.1811203 0.07881602
000040 d9 6b a8 bd 28 d8 45 bf 97 ae 36 3d 32 7b 3d 3d
       -0.08223695 -0.77282953 0.044600096 0.046260066
000050 0c f6 12 bf 80 cc f2 be d5 d6 0f be d9 f9 a2 bf
       -0.5740669 -0.47421646 -0.14046796 -1.2732497
000060 56 0e 36 3e 32 fa 03 bf fa 54 d9 3d 19 f4 96 bd
       0.17778906 -0.5155364 0.10611911 -0.07370777
000070 a7 96 9d be 74 cc 9d be 2f d6 e6 be 2d 56 9c 3d
       -0.30779 -0.30820048 -0.45085284 0.07633624
000080 a8 ae e6 bc 2c 3d 59 3e a5 05 d2 bf b5 31 e2 be
       -0.028159454 0.21214741 -1.6407973 -0.44178548
000090 d4 17 1e bc bf 7e da 3e 1a 09 43 be b6 9a ba be
       -0.009649236 0.42674825 -0.1904644 -0.3644616
0000a0 2c 63 e2 3e 5e 24 b7 3d 8b 78 95 3e d3 ed 5e 3d
       0.44216287 0.08942483 0.2919353 0.054426026
0000b0 32 dd a2 bf 3a 3c 16 bf f9 58 b0 3e db 94 99 3c
       -1.2723753 -0.5868565 0.3444288 0.018747738
0000c0 12 ab 89 3e 94 6c 84 be bc e9 23 bf 9b aa 80 bd
       0.2688833 -0.2586409 -0.64028525 -0.062825404
0000d0 0e 93 0b 3e 85 64 fb 3d c2 32 7c bf 90 c3 7d bd
       0.13630316 0.12275032 -0.9851495 -0.06195408
0000e0 d0 80 25 bf 28 3c 38 be d7 4e b7 be f4 86 e7 bf
       -0.6464968 -0.17991698 -0.35802338 -1.808806
0000f0 bc 49 5a bd 61 d2 46 bf dd 9e a4 3d f5 5e 7f 3e
       -0.053292975 -0.7766476 0.08038113 0.24938567
000100 f9 0f ee 3c ad a9 bf bc d8 db b1 be 57 9c 65 3e
       0.02906035 -0.023396337 -0.3473804 0.2242292
000110 c4 74 12 3e 2f c9 89 be 03 3b d7 bd b5 a5 41 be
       0.14302355 -0.26911303 -0.105093025 -0.18910868
000120 78 99 3c be da 31 00 3e 0f 9b cb bd 4c dc f4 3d
       -0.18417919 0.12519017 -0.099416845 0.11956081
000130 16 10 bd bd 17 ab 62 3e 93 44 08 be 65 1a 8f bd
       -0.09231584 0.22135578 -0.13307409 -0.06987456
000140 9f 6a 33 be af 5e 58 bb 7b 1d 02 be f0 a8 92 be
       -0.17521141 -0.003301542 -0.12706558 -0.28644514
000150 c6 75 ab be 81 76 00 3e 25 0b d8 3c 41 2c 4d be
       -0.33488292 0.12545206 0.026372502 -0.20036413
000160 57 e9 0f 3e f2 3f 46 bd 2e 4e 03 be e0 f2 1f bd
       0.14053856 -0.048400827 -0.12822792 -0.039049983
000170 cb 58 8d 3c 92 ce 0f 3e e4 1b 98 be 13 90 81 be
       0.017254254 0.14043644 -0.2970878 -0.25305232
000180 bb ae 8d be 90 48 74 be d3 18 9e bd 22 24 9d 3d
       -0.2767237 -0.23855805 -0.077195786 0.076729074
000190 36 fe 4e 3e a4 77 c5 bd 8a e2 22 3e 8a ae e2 3d
       0.20214161 -0.0964196 0.1590673 0.11068447
0001a0 9c 41 7f be b5 36 98 3e e7 09 1e bc ba 8a 97 bb
       -0.24927372 0.29729238 -0.009645916 -0.004624692
0001b0 c3 f0 ca bd 03 95 0b 3e d0 94 25 3e 76 97 eb 3f
       -0.09909203 0.13631062 0.16170049 1.8405597
0001c0 ad 92 b9 3d 09 dc 6b be a8 99 9a bd e9 63 3c 3d
       0.09061179 -0.23033156 -0.07548839 0.04599372
0001d0 f4 03 cc be e6 72 a4 be 7f 35 37 3d 87 fb f7 bb
       -0.39846766 -0.3211891 0.044728752 -0.007567826
0001e0 e6 1e 31 be 8a 76 53 bf f0 b3 07 3e 42 60 d2 3f
       -0.17296943 -0.8260275 0.13252234 1.6435626
0001f0 e1 c9 1c bd be 8c 20 3e 01 77 c4 3b 94 3b a2 3d
       -0.038278464 0.15678689 0.0059956317 0.0792152
000200 4f 73 18 bd c1 c4 a9 bd ff e0 92 bd 73 c4 35 c1
       -0.03721934 -0.08289481 -0.07171821 -11.360461
000210 19 0c 2f bf 3f 7a f5 3e 70 0c d5 3e 3b 04 af bc
       -0.68377835 0.4794483 0.41611052 -0.021364322
000220 09 01 a2 be a1 fd 16 3f a8 cb 87 bf 2f 13 48 c0
       -0.31641415 0.58980757 -1.0609026 -3.1261709
000230 12 27 54 bf d1 ae 01 bf aa 57 c6 bf ad 5b f4 3d
       -0.82872117 -0.50657374 -1.5495503 0.11931548
000240 89 36 03 bf a2 4e d5 bb 3d e5 c6 3c 11 0a ea be
       -0.5125509 -0.006509618 0.024279231 -0.45710805
000250 c8 b6 95 be 04 8d 71 3e 0f 4d a6 be 12 fd e7 3e
       -0.29241014 0.2358895 -0.32480666 0.45310265
000260 ac 96 41 be 78 76 01 bd 0f 5c 5f bf bb e5 1c 3e
       -0.18905133 -0.03160712 -0.87249845 0.1532201
000270 65 fa 1f bf 48 e7 24 bf 2d 8d 0e 3f bb 15 6c 3e
       -0.62491447 -0.6441541 0.5568417 0.23055165
000280 1b d9 11 bd 93 59 68 be 0a 8a 30 be 9f 87 21 bf
       -0.03560744 -0.2269042 -0.17240158 -0.63097566
000290 96 10 8f bd 3d 14 43 3e 40 29 23 bc 48 a4 94 be
       -0.069855854 0.19050689 -0.009958565 -0.29031587
0002a0 97 77 91 be 1c 3b 77 be 5a 3c 89 3c 4a 49 1e 3e
       -0.28411552 -0.24143642 0.01675241 0.15457645
0002b0 8a 95 19 3e 56 6a 5e 3b e9 ff 84 3d 72 ea 45 be
       0.14998451 0.0033937893 0.064941235 -0.19327715
0002c0 06 bf 59 3e 2a 6f 82 3d 1e 36 7c be 7f 19 5c be
       0.21264276 0.06368859 -0.24630019 -0.21494101
0002d0 38 5c 8b be 24 0b fc bd aa e9 3d 3e a8 df 97 bc
       -0.27218795 -0.123068124 0.18546167 -0.018539265
0002e0 7f 2f 1f be 78 51 44 3d ce 63 64 be 7e 86 24 3d
       -0.15545462 0.047929257 -0.22303697 0.040167324
0002f0 15 b2 10 3e da 51 b2 3d 07 46 d8 bd 16 04 3c be
       0.14130433 0.08707018 -0.10560232 -0.18360934
000300 ab 7b 78 3d c9 fd 10 3e 59 5a 1c be 71 ee 35 bd
       0.060664814 0.14159311 -0.1526884 -0.04441685
000310 93 0e 91 bd 27 f3 04 be 86 4e 9a be 26 59 80 be
       -0.07082858 -0.1298338 -0.30138034 -0.25068015
000320 46 d0 68 3e c8 ba 3a be b8 08 66 3e 7a 05 41 3e
       0.227357 -0.18235314 0.22464263 0.18849745
000330 20 4a 3d bd f2 7c 16 be 08 b8 c1 bc 45 48 af bd
       -0.04621327 -0.146961 -0.023647323 -0.08558706
000340 99 1c 59 be 78 f6 6b 3e 0c 6a 64 bd 21 b8 a0 bd
       -0.21202315 0.23043239 -0.055765197 -0.0784762
000350 a1 c6 52 be 40 67 4a 3d 5c 38 15 3c b6 86 88 3e
       -0.20583583 0.049414873 0.009107675 0.26665276
000360 75 b7 01 be 9a f8 2e 3e f2 79 99 bc ca 29 25 3e
       -0.1266764 0.17087021 -0.018734906 0.16129223
000370 8c 17 e1 bc e8 90 56 bd f8 d7 b2 3d ca 93 0a be
       -0.027477048 -0.052384287 0.08732599 -0.1353294
000380 a7 5c f1 3d 60 4a 82 be b3 8d 7f be 0e ed 82 3e
       0.1178525 -0.2544737 -0.24956398 0.25571483
000390 be cd 16 be e3 86 8c be af fa 81 be 4e 18 8b 3e
       -0.14726922 -0.2744666 -0.2538657 0.2716698
0003a0 70 0b 2e bd 2a f5 ae be 3d 8a ea bd ef a8 17 be
       -0.042491376 -0.3417142 -0.11452148 -0.14810537
0003b0 2c b4 68 be 1c 3e 18 be 92 ad 53 3e cc 70 14 3d
       -0.2272498 -0.14867443 0.2067168 0.036240384
0003c0 66 71 bb 3d 6a 89 e9 3a 00 2d 5a be 68 f3 fd bd
       0.091524884 0.0017817442 -0.21306229 -0.12399942
0003d0 0c ce 50 be b6 c5 60 be 10 0f 92 be 0f 5b 03 bd
       -0.203911 -0.2195042 -0.28527117 -0.032069262
0003e0 fb 0e 96 3d fd b6 25 3e c0 d3 fc bb 5a 99 ea bd
       0.07327076 0.16183086 -0.0077156723 -0.11455031
0003f0 e6 50 47 bd 6c d7 09 3d 30 1d 45 bd fc a2 da bd
       -0.048661135 0.033652708 -0.04812354 -0.10675618

enc.0.bias f4 [32]
000000 5a 1a 1f be 0e 87 af be 02 99 97 bd d9 8a e4 3e
       -0.15537396 -0.34282726 -0.07402231 0.44637182
000010 6d 89 bf 3e 1c ac c3 bd a5 af 83 bd 6a 13 e0 bd
       0.37409535 -0.09554312 -0.06429986 -0.10941203
000020 ef 74 48 3e a5 5b a9 3d 27 0d 2f 3f ac c2 bf 3e
       0.19575857 0.08269433 0.68379444 0.3745321
000030 fc 5a 05 3f cf 7b 49 be 10 c0 31 bf 7e d8 b5 bd
       0.52091956 -0.19676135 -0.6943369 -0.08879183
000040 5b b8 2e 3c aa 11 27 be d6 70 24 3e 42 03 dc 3d
       0.010664071 -0.16315332 0.16058668 0.10742809
000050 b6 52 87 3e 84 b9 7b 3e ce a6 09 be 1d ab e5 bd
       0.2643029 0.24582487 -0.13442537 -0.11214278
000060 26 0d 4a bf 54 a2 69 3f aa 94 0b 3f 22 e8 08 3f
       -0.7892631 0.9126332 0.5452372 0.53479207
000070 9f 36 60 b9 75 87 c1 3d 6d db cb be da ee 11 be
       -0.00021382653 0.094496645 -0.39815846 -0.14251271

enc.2.weight f4 [32, 32]
000000 cc c7 86 bd 76 41 06 bd c5 0e 15 be aa 96 a7 bd
       -0.06581077 -0.032777272 -0.14556415 -0.08183034
000010 d8 10 a6 be f4 14 00 be 51 09 9f be 2d 4f bd 3d
       -0.32434726 -0.12507993 -0.31061795 0.09243617
000020 42 fa 80 be 1a ee 1a be 98 a3 d3 be 7d e0 0d 3e
       -0.25190932 -0.15129891 -0.4133575 0.13855167
000030 b8 14 b8 bd b8 57 0b 3e 18 9b b1 be c2 5c 6d 3e
       -0.08988327 0.13607681 -0.3468864 0.23179916
000040 76 de 41 be 32 36 b6 be cf 26 66 3e 6e 5d dc be
       -0.18932518 -0.35588223 0.22475742 -0.4304003
000050 46 b1 8d be 0d ca 3b bd 65 15 2f bd 00 64 98 bb
       -0.2767431 -0.045846988 -0.042745013 -0.004650593
000060 d5 1d 5d 3c 7e c4 84 be 6e 20 02 be fa ba 70 3d
       0.013495882 -0.25931162 -0.12707683 0.058772065
000070 64 6b 65 be e7 5d 9d bd 83 fa a5 be 70 27 12 be
       -0.22404248 -0.07683926 -0.32417688 -0.14272857
000080 7d d2 40 3e 40 d9 20 be 2c 31 fc 3d b3 da 34 3e
       0.18830295 -0.15707874 0.12314066 0.17661552
000090 a1 03 32 3e 8e 43 e9 3d c7 2e 3b 3e 9d 3c e2 bd
       0.17384197 0.11389838 0.18279563 -0.11046717
0000a0 88 22 02 bd 1c 3e 1f be 93 04 c5 be b0 57 2f 3e
       -0.031771213 -0.15551037 -0.38480052 0.17123294
0000b0 74 8a a6 be 31 34 c8 be 7b 0e 48 be 5b 66 8f be
       -0.32527506 -0.3910232 -0.19536774 -0.2800778
0000c0 92 b1 be be 88 50 74 be 53 ea 43 3c 53 2b b3 be
       -0.3724485 -0.23858845 0.011957723 -0.3499399
0000d0 de 2b ae be 91 ba 5f be 28 a2 85 be 80 2f 93 3d
       -0.34017843 -0.21848513 -0.26100278 0.07186794
0000e0 89 2a 7e bd 18 5a 11 3d f1 32 61 3e 48 7d 3f be
       -0.062052283 0.03548631 0.21992089 -0.18700135
0000f0 d6 f8 2d be 56 51 b9 bc e3 e5 85 3d 93 0d 93 bd
       -0.16989455 -0.022621792 0.06537988 -0.071803235
000100 9e 41 d3 bd 97 c6 10 3c 3f 16 a9 be 6f 82 a3 be
       -0.1031525 0.00883641 -0.33024785 -0.3193545
000110 b7 0c ba be 76 29 9a be 6c 3d 7e be 3f a5 85 be
       -0.36337826 -0.30109757 -0.24828118 -0.26102635
000120 53 47 1e 3c f1 e6 5e bc 5d 07 0a be 8c af 17 be
       0.00966056 -0.013604865 -0.13479371 -0.1481306
000130 15 e1 12 bd 48 6a d0 3c ac a4 e8 be e1 27 57 3e
       -0.035859186 0.025441304 -0.45438135 0.21011306
000140 40 48 6b bd 98 0c 49 be 5c e4 e9 3d c2 78 a9 bd
       -0.05744195 -0.1963371 0.11420509 -0.08274986
000150 8d 90 9c be a1 4f 02 3c a7 82 98 3d 3e 9d 6c 3e
       -0.30579033 0.007953555 0.07446795 0.23106858
000160 94 0c 2a be 25 66 92 be 11 2d 07 3e 38 3b 95 bd
       -0.1660636 -0.28593555 0.13200785 -0.07286686
000170 8a fd ab bd fa 8b 51 be f3 0c 50 3d fc 8b cb be
       -0.08397968 -0.20463553 0.0507936 -0.39755237
000180 6e a2 a1 be c3 87 e9 bc 2a 62 a8 bd 0d 81 bf 3f
       -0.31569237 -0.028507119 -0.08221848 1.4961258
000190 3c 39 1f bf a7 65 cb 3d 81 f0 81 3e 9c ab 36 bd
       -0.6219671 0.09931498 0.25378802 -0.044597253
0001a0 b6 52 df 3e c0 30 51 3c 0a 88 b0 be d1 b1 0c c0
       0.4361779 0.012767971 -0.3447879 -2.198353
0001b0 0e 5d fc 3e fc c1 42 be ca 5a 23 3e 64 19 b2 3d
       0.49289745 -0.19019312 0.15952602 0.08696249
0001c0 42 78 af be 8a f3 e8 be 7a 59 4f 3e 2c c5 09 bf
       -0.34271437 -0.45498306 0.20248976 -0.53816485
0001d0 62 c1 cb be 98 6d 82 bd 02 7b c2 bc 91 5d 60 bc
       -0.39795977 -0.063685596 -0.023740295 -0.013694183
0001e0 ae 00 01 c0 31 80 97 3f ca 4f 82 bf 01 fa a9 3f
       -2.0156665 1.1835996 -1.01806 1.327942
0001f0 1b 01 28 3d 18 41 a9 bf 19 c6 e8 3e b4 91 91 bc
       0.04101668 -1.322299 0.45463637 -0.017769672
000200 18 da d4 3d e1 ab 48 3e fa 2c 8e 3e e2 62 d2 bf
       0.103931606 0.19596817 0.2776869 -1.6436427
000210 8f a2 0c 3f 20 a2 86 be ff 9d 37 bd d3 1d fe bd
       0.54935545 -0.26295567 -0.04482841 -0.12408032
000220 8f 1a 65 bf d1 f1 95 be b9 61 f6 3f 1d 8c 9c bf
       -0.8949365 -0.29286054 1.9248573 -1.2230259
000230 1e c1 94 bf 04 d9 6e bd 31 66 ec 3d ac 94 a0 3e
       -1.1621435 -0.05831243 0.11542929 0.31363428
000240 57 70 4b be 2c fc 5c bf a1 35 ff 3e fb b7 06 be
       -0.19867073 -0.86322284 0.49845603 -0.1315612
000250 0e 2d 01 be d2 50 07 c0 91 c7 21 3d c0 c9 4b be
       -0.12614843 -2.1143079 0.039496962 -0.1990118
000260 d2 5b 2b 3f 11 e7 e4 bf 9b 9a 90 bf 9c 17 b9 bf
       0.6693698 -1.7883016 -1.1297182 -1.446033
000270 5b 60 b8 3e 9e 12 66 3d a8 1d 04 c0 51 9f 0e 3c
       0.36011013 0.0561701 -2.06431 0.008704976
000280 94 61 4e be e4 ac d8 3c f7 c8 60 be 5d 88 76 bd
       -0.2015441 0.026449628 -0.21951662 -0.06018864
000290 c4 de d0 be 0e 30 f4 3d 30 12 14 3e 70 57 98 be
       -0.40794957 0.11923228 0.14460063 -0.2975421
0002a0 da 38 38 3c 40 29 34 be 36 45 82 be 46 3b 86 be
       0.011244023 -0.1759386 -0.2544343 -0.26217097
0002b0 64 1d e1 3d 14 a6 5c be db c2 57 3e c4 22 7d 3d
       0.10991934 -0.21547729 0.21070425 0.061800733
0002c0 db 0f aa 3d 1f c5 8f be 58 83 ae bc ba d8 55 bd
       0.083038054 -0.2808008 -0.021302864 -0.05220864
0002d0 d2 8d ba 3d a6 04 96 be 63 38 ca bd 00 d6 f9 3b
       0.09109081 -0.2930042 -0.09874036 0.0076243877
0002e0 a6 5a 91 be c8 bb 55 3d c6 81 d4 3d f7 ac 85 3d
       -0.28389472 0.052181035 0.10376315 0.06527131
0002f0 2d ec 41 be c1 47 a7 3b 86 03 ce be 4e cd 8c 3d
       -0.1893775 0.0051049893 -0.40237063 0.06875096
000300 c8 bb 1d bf 07 d2 8c 3d b8 9f d9 3d d9 55 7f c0
       -0.61614656 0.06875997 0.10626167 -3.9896147
000310 30 9a 1f be 08 f2 a0 3e 4b 2d 96 3e 42 fc 2e 3e
       -0.15586162 0.31434655 0.2933143 0.17088416
000320 d9 5f d0 40 ed 86 fe 3e 2e df 6e bf b1 f1 c3 3e
       6.5117 0.49712315 -0.93309295 0.38270333
000330 9c fc b1 3d 2a 98 35 bd 41 e0 f3 ba 00 de 82 bd
       0.086907595 -0.044334568 -0.0018606262 -0.063899994
000340 f5 69 22 bf 99 9a 8c be 5d 5d dc c0 7c 47 b6 bf
       -0.6344293 -0.274617 -6.886397 -1.4240565
000350 06 73 1e 3f e9 60 a4 be e7 82 8e 3d 5f 03 73 3e
       0.6189426 -0.32105187 0.069585614 0.23731755
000360 6c 4f 9b bf c8 bb b1 3f 11 08 2b c0 b7 0f 87 c0
       -1.2133613 1.3885431 -2.6723673 -4.2206683
000370 9c 83 0e c0 af f9 7e bf b5 14 fc 3c e8 75 16 be
       -2.2267828 -0.99599737 0.030771593 -0.14693415
000380 b7 9e 37 be 2b b6 7d be f6 af 52 3e c5 16 48 be
       -0.17931639 -0.24776523 0.20574936 -0.19539936
000390 13 43 0f be 02 c7 6f 3e 03 db 7b be 22 93 83 be
       -0.1399043 0.23415759 -0.24595265 -0.2569819
0003a0 5c 33 bd 3c 64 6d 03 be 9a 3a ba be 9a ed 46 3e
       0.02309578 -0.12834698 -0.36372834 0.19426575
0003b0 fc d5 91 be a2 82 bb be d9 1d 06 bf 5c bc a5 3d
       -0.2848357 -0.36623102 -0.52389294 0.08092567
0003c0 68 7d 2c be 8f d3 f4 3d 26 cf b4 3d 20 f3 de bd
       -0.16844714 0.11954414 0.08828573 -0.10886216
0003d0 96 00 97 be b1 87 27 3c 40 9e 50 3c 4c 4b 95 3d
       -0.29492635 0.010225222 0.012733042 0.07289752
0003e0 be 95 d4 be 88 a5 99 be c6 24 19 be 1e ad 2c be
       -0.41520494 -0.30009103 -0.14955434 -0.16862914
0003f0 f9 53 0d be f5 48 9d be 86 ca c2 3c 3e 8a 48 3d
       -0.13801564 -0.30719724 0.023778211 0.048959963

enc.2.bias f4 [32]
000000 bf b2 87 be f8 a5 98 be cd 9d a5 be 4d 6d e8 3e
       -0.2650356 -0.29814124 -0.32346955 0.4539589
000010 c3 19 1d 3f 7c b1 55 be d6 c0 c2 3f 02 91 89 be
       0.61367434 -0.20868486 1.5215099 -0.26868445
000020 2b dc 8e be 60 1d 33 3f 3c d6 a5 3f fc 29 52 be
       -0.2790235 0.699667 1.2956004 -0.20523828
000030 aa 13 98 3f 5a 2e 2e 3f 86 02 4a 3f 2e 95 62 be
       1.1881001 0.68039477 0.789101 -0.2212722
000040 50 93 52 3f 26 51 38 3f 8a 39 9d 3f ca 43 27 3e
       0.8225603 0.7199882 1.2283185 0.16334453
000050 ba 8e 64 3f 93 4e 85 3e e9 2e 5b be 01 c1 6a 3f
       0.89280283 0.2603651 -0.21404614 0.9170075
000060 6b 8d 67 3f 07 51 29 3f 6a 54 41 3f 11 b3 6a 3f
       0.9045016 0.6613926 0.7551943 0.91679484
000070 f0 28 5f 3e 3b 21 26 be 99 2d 05 40 a9 fe 0c 3f
       0.2179296 -0.16223614 2.080908 0.5507608

enc.4.weight f4 [32, 32]
000000 b1 47 4f 3d d0 50 2c be 82 07 06 be ac 37 3f bf
       0.05060548 -0.16827703 -0.13088802 -0.74694324
000010 2f b8 a2 bf 84 e9 f5 bc f6 5f 08 c0 00 4f 43 3e
       -1.2712458 -0.030018575 -2.130857 0.19073105
000020 9b 5a cb bd 42 4b 89 3f 0b f7 d9 3e e3 8c 7b bd
       -0.09929391 1.0726092 0.4257129 -0.061413657
000030 95 79 e1 3f 3c fb b8 be 1e 3f b5 bf 85 2f 9c 3d
       1.7615229 -0.36129177 -1.4159887 0.07626251
000040 fb 35 77 3e 06 f9 09 be c9 76 0d bf 4c 3b 28 bf
       0.24141686 -0.13473901 -0.55259377 -0.6571548
000050 39 ff 87 3f b7 0a e1 3f e1 83 6f 3c bb 4f 46 3e
       1.0624763 1.7581395 0.014618845 0.19366352
000060 48 4e a3 3f f7 25 07 bf ae a6 2d bf 77 90 e4 3e
       1.2758265 -0.52792305 -0.6783246 0.44641468
000070 5c 6f 77 3f 82 5c 1c be 15 62 12 bf b6 88 f5 be
       0.96654296 -0.15269664 -0.5718091 -0.47955865
000080 8d 0d aa bd 64 be 0a 3c 02 04 47 be 6b cd 92 3f
       -0.08303366 0.008468244 -0.19435123 1.1468939
000090 cd 9e 0a 40 d3 88 60 3e 7d b9 2e 3f 3b 5f 8d 3e
       2.1659424 0.21927194 0.6825178 0.27611718
0000a0 53 93 d2 be 65 18 41 3f b4 93 1a 3f 08 2f 87 bd
       -0.41128024 0.7542785 0.6038163 -0.066007674
0000b0 5b be 89 3f 1c 10 b3 bf fb 14 28 be 79 a5 0d be
       1.0761217 -1.3989291 -0.16414253 -0.13832654
0000c0 f8 d6 db 3e 1b 93 9f 3e 54 89 2d 3f da 32 dc bf
       0.42937446 0.3116692 0.6778767 -1.7203019
0000d0 48 0d a0 3e 26 62 04 3f 94 fc 01 3d 54 47 dc bf
       0.31260133 0.5171226 0.031735018 -1.7209268
0000e0 6a ab 89 3f 42 8e 37 bf 89 3c e9 be 17 3f 8e bf
       1.0755436 -0.71701443 -0.45553997 -1.1113003
0000f0 c5 81 7e 3d 18 7b f6 bd aa b9 e5 be 58 a9 38 3e
       0.062135477 -0.12035197 -0.44868213 0.1803335
000100 c1 87 73 3d c9 89 ec bd 35 3e 48 be ff 36 c1 bf
       0.059455637 -0.11549718 -0.1955498 -1.5094908
000110 63 fd d5 3d fb e7 02 3e ac 8e d7 3e 33 43 f1 bd
       0.1044872 0.12783806 0.42101038 -0.11780395
000120 75 1c 5a be f9 23 3b 3f c6 04 f3 bf 2a 4a 84 3e
       -0.21299918 0.73101765 -1.8985832 0.25837833
000130 13 9b cb 3d 37 2f c2 bf f9 d8 3e 3f 3d e7 19 3d
       0.099416874 -1.5170659 0.74549824 0.03757404
000140 7f 50 97 3f 98 35 f3 3f 90 00 2d 3f 03 00 12 3f
       1.182144 1.900073 0.67578983 0.5703127
000150 e6 d1 10 bf a5 48 c0 3e 8b d3 78 be 54 1e 14 3f
       -0.5657028 0.37555423 -0.24299447 0.5785878
000160 3b 0c e6 be 8c 20 09 bf 3b 21 64 3d 77 1e 85 3e
       -0.44931206 -0.5356529 0.055695754 0.25999805
000170 ea 32 8c bf a2 24 8f be 1a d8 d4 3f e2 5a 2f 3f
       -1.0953038 -0.27957636 1.6628449 0.6849805
000180 e9 e1 01 bf 4d e8 cb 3d 22 75 c4 bd 17 42 6c 3e
       -0.50735337 0.09956417 -0.09592654 0.23072086
000190 41 9d aa 3f f1 67 35 be 9d fb 0b 40 22 b6 4f 3e
       1.332924 -0.17715432 2.1872323 0.20284322
0001a0 dd c7 89 3e fe bd a4 bf 4d 59 80 3f cd 79 22 be
       0.26910296 -1.2870481 1.0027252 -0.15866776
0001b0 2f eb 70 3f 30 6f 86 3e 22 52 8e be be f2 82 3e
       0.9410886 0.26256704 -0.27797037 0.25575823
0001c0 b9 b1 f5 be 94 6b fb be d2 58 bf 3d 62 d6 72 bf
       -0.47987154 -0.49105513 0.09343113 -0.9485837
0001d0 a0 97 97 be d0 99 39 3f 6b 03 1e 3e ec 29 0f be
       -0.29607868 0.72500324 0.15430991 -0.13980836
0001e0 d0 04 ab bf da cd 3a 3f e9 4a 44 bf 8f ba 06 3f
       -1.3360844 0.72970355 -0.76676804 0.52628416
0001f0 5d ad 46 be dc 69 06 be 14 e3 27 3f d7 3f 30 40
       -0.1940207 -0.1312632 0.6558087 2.7538965
000200 08 b4 33 3d 28 97 3c 3e 06 2f bf bd 5c a4 4a 3e
       0.043872863 0.18417037 -0.09335141 0.1978926
000210 80 a9 b3 bb 64 fc 45 3e 96 31 31 3e a0 62 86 bc
       -0.0054828525 0.1933456 0.17304072 -0.01640445
000220 8b bd 93 3e c7 68 c9 3d b7 79 80 be 20 05 b5 3c
       0.28855547 0.09834438 -0.2509286 0.02209717
000230 c3 93 59 be 7f 0d b7 bb 0c 64 7e be 0a fd e8 bd
       -0.21247773 -0.0055863257 -0.24842852 -0.11376388
000240 cf 1f 42 be 22 6f b8 be 7a d6 5e 3e 44 dd 0b be
       -0.18957447 -0.36022288 0.21761504 -0.13658625
000250 a0 1c 21 be d0 22 8f bd 80 92 b0 3b 80 31 a4 be
       -0.15733576 -0.06989062 0.005388558 -0.32069016
000260 f2 c9 5a 3d 02 42 82 be ec c4 8c be 2c bd 5c be
       0.053415246 -0.25440985 -0.2749399 -0.21556538
000270 49 c6 9a be aa 9f 75 3e b5 4e 5b 3d 3f b0 51 3e
       -0.30229405 0.23986688 0.053541858 0.20477389
000280 cc 0f d5 bc e0 d1 15 bd 0e 40 09 3e 0d f4 72 be
       -0.02600851 -0.036577106 0.13403341 -0.2372591
000290 1a d6 03 be 72 aa e5 bd f9 5e 9b be cb a8 8c bd
       -0.12874642 -0.112141505 -0.30345896 -0.06868132
0002a0 83 3a a0 bd 7f ab 27 3f 2d 55 6a bf ee 8f 0c 3e
       -0.0782366 0.6549606 -0.9153622 0.1372678
0002b0 94 25 1b be 1b 0c 35 40 a8 7a fb bc 3f 82 ba 3e
       -0.15151054 2.8288639 -0.030698135 0.36427495
0002c0 d7 77 11 3e 7e 2c 17 3f fc 4e 70 3f 3e dd ff 3f
       0.14205872 0.59052265 0.9387052 1.9989393
0002d0 9f a0 48 bc 02 cf f9 bf 42 d2 b4 3c de f1 a9 3f
       -0.012245326 -1.9516299 0.022072915 1.3276937
0002e0 02 cb 59 3f 6d 8e 64 3f 24 d7 ad 3f 1d 23 1b 3e
       0.8507539 0.89279824 1.3581281 0.15150113
0002f0 19 b6 2a bf 60 a9 7a 3e e9 cb 87 bf 85 77 86 3d
       -0.6668411 0.24478674 -1.0609103 0.06565765
000300 c4 1d 63 bd 7c db 88 3d 1b 9e 19 3d 38 c2 ae bf
       -0.05544831 0.06682488 0.037504297 -1.3653021
000310 64 68 bc 3e 7e 3b 5d 3e 61 d8 32 bf b5 74 dc 3d
       0.36798394 0.21604726 -0.6986142 0.107644476
000320 5e a7 24 3e e0 dc 03 bf bb 2f 92 3f 70 97 cf bd
       0.1607947 -0.51508904 1.1420816 -0.10136306
000330 5c 3e 72 3f 6b f0 d2 3f 17 4c 59 3e f4 85 2d 3e
       0.946264 1.647962 0.21220432 0.1694563
000340 af 3e a7 3f de 0d 19 3f f7 55 2b 40 0d 96 96 3f
       1.3066005 0.59786785 2.6771219 1.1764542
000350 a0 9f 74 bf 07 0f 1e 3e ff 28 01 be d3 57 59 3f
       -0.9555607 0.1543542 -0.12613295 0.84899634
000360 34 c2 72 3f 3f a4 33 3e 04 0d b9 bd 92 2d 7b be
       0.9482758 0.17543124 -0.09035686 -0.24529102
000370 ab 8b 63 bf 77 e5 39 3e b0 c0 cb be 08 f6 56 bf
       -0.8888499 0.1815394 -0.39795446 -0.83969164
000380 07 1d 8f 3e 3c ea 7d be 14 8a 1d 3e dd 21 23 3d
       0.27951834 -0.24796385 0.15384704 0.039827216
000390 22 f2 98 3c 6e 22 67 3e 3e 6b 85 bc 46 89 e9 bd
       0.018670145 0.22571728 -0.016286489 -0.11403136
0003a0 ed e0 85 3e 2f e0 13 3e 18 cc 07 3e 24 d3 a8 bd
       0.26148167 0.14440988 0.1326145 -0.08243397
0003b0 56 55 93 be 9b 79 98 bd 4a 8a a8 bd 4c 2f 7c bd
       -0.28776044 -0.074450694 -0.082295015 -0.061568543
0003c0 14 09 40 be b5 6a 40 3e b4 38 9f bd d6 19 9b be
       -0.18753463 0.18790706 -0.07774487 -0.3029315
0003d0 d7 78 72 be b5 f4 ac be da 81 2d 3e 86 00 84 bd
       -0.23678909 -0.33780447 0.16944066 -0.06445412
0003e0 61 44 2d be d7 fc 88 be fe d1 f0 3d e8 c8 97 be
       -0.16920616 -0.26755401 0.11758803 -0.29645467
0003f0 08 5c a3 be 40 03 e2 bc bf 1a 1b 3e 55 23 8c be
       -0.31906152 -0.02758944 0.15146922 -0.27370706

enc.4.bias f4 [32]
000000 fe ad 87 3e 50 06 1d 3f ad ba 81 3e f9 5c 23 be
       0.26499933 0.6133776 0.25337735 -0.15953435
000010 95 1c 82 bd 86 74 b3 3e 43 94 79 3e 9b f5 03 bd
       -0.06353108 0.35049838 0.24372964 -0.03221665
000020 3e 5f ef bd 9a 08 8a 3d f7 19 65 3f 99 dc 20 3f
       -0.11688088 0.06739922 0.89492744 0.62836605
000030 6f d9 30 3e ee 81 e2 bd 78 8d 48 bd 8d 89 8d 3f
       0.17270444 -0.11059938 -0.04896304 1.1057602
000040 07 19 8e bd df 62 f7 bd 25 db 7e 3d 5b f8 54 3f
       -0.06938367 -0.12079405 0.06222071 0.8319146
000050 69 3d 3d 3f 7f 19 f3 bb e2 6e 56 3f 15 40 ce 3e
       0.7392183 -0.007418811 0.83762944 0.40283266
000060 ce 24 be 3e 1e fc a0 be 2a b4 0d be a3 d0 38 3f
       0.37137455 -0.3144235 -0.13838258 0.72193354
000070 60 6d 12 bf 1b ba 2c 3f 27 50 4b bd df 38 d1 3e
       -0.57198143 0.67471474 -0.049636986 0.40863702

dec.0.weight f4 [32, 32]
000000 a3 31 97 be da ee fe 3d 6f 34 c3 be 51 c4 b3 bf
       -0.29530057 0.12447901 -0.3812594 -1.4044286
000010 63 3d 93 be 3e f9 5b 3f 83 29 a2 bd 11 1b 62 be
       -0.28757772 0.8592719 -0.07918074 -0.22080638
000020 17 89 e0 bd b6 d8 b7 3e 2b ec 97 3f 84 17 12 3f
       -0.10963648 0.35907525 1.1868948 0.5706713
000030 16 e9 22 bf 2e 21 ab bd a6 d2 25 bd 24 30 52 3e
       -0.6363691 -0.08355938 -0.040484093 0.20526177
000040 c2 f6 7b bf e5 34 4e be 5a f9 33 3d fb a2 af 3f
       -0.984234 -0.20137365 0.043938972 1.3721613
000050 af ab 46 3f 51 86 cd bf 40 07 e7 3f d3 c1 4f 3f
       0.7760572 -1.6056615 1.8049088 0.8115513
000060 e1 4d 47 3f a7 b4 76 3f 07 c5 ad 3e 1b 80 2d 3f
       0.7785321 0.96369404 0.33939382 0.677736
000070 6b 56 53 c0 be af 52 bf f5 3f 05 be d6 bb 95 3e
       -3.3021495 -0.8229941 -0.13012679 0.2924487
000080 b1 d9 f1 bd 24 08 42 be 7b 29 2d bd 99 3e 6e 3f
       -0.118090995 -0.18948418 -0.042275887 0.93064266
000090 30 8b 62 3e 0e e6 2e 3f 02 2b ba bd a8 7f 34 be
       0.22123408 0.68319786 -0.09090234 -0.17626822
0000a0 81 68 20 3e 0f b9 aa be 99 b5 bc bf 9f 60 47 bf
       0.15664865 -0.33344314 -1.4742919 -0.7788181
0000b0 8a 64 26 be 0c 7e 9b 3d d4 c3 a4 be 11 76 4b bc
       -0.1624929 0.07592401 -0.32180655 -0.012418286
0000c0 bc ae 93 bb c6 b0 8f bc cf 9e 8b 3e 35 79 e6 3e
       -0.004506914 -0.017540347 0.272696 0.4501435
0000d0 00 a4 e6 bd 1e 41 a6 bd 53 d8 43 3f a3 d7 8f 3e
       -0.11261749 -0.08117889 0.7650196 0.28094205
0000e0 91 2c 5a 3f 8d da 4e 3e 55 72 98 3e 77 5c 11 3e
       0.8522425 0.20200558 0.29774728 0.14195429
0000f0 cc 76 8c bf 31 8c 06 40 6a 1a 5f 3d aa ca 9b 3e
       -1.0973754 2.1023066 0.05446855 0.30428058
000100 51 4f 5a 3f e7 6b ae bd 33 71 04 c0 20 9a b4 3f
       0.8527728 -0.085166745 -2.0694091 1.4109535
000110 32 ef 7d 3e 52 11 90 3f 64 78 f9 be 26 4d 70 3e
       0.24798277 1.1255286 -0.48724663 0.2346693
000120 bd fb 8b 3e db 55 13 3e 9a f4 6b 3f 90 09 48 3f
       0.273405 0.1438822 0.9217011 0.7813959
000130 47 0d d9 bf 77 1c 50 bd c2 af c2 3d 8e 31 91 3d
       -1.6957177 -0.050808396 0.095061794 0.0708953
000140 02 86 16 3f 28 1f cd 3c 5a 59 e1 3e f9 6f a5 be
       0.5879823 0.02503927 0.44013482 -0.3231199
000150 17 99 97 3d 73 10 08 c0 bf 31 3e bf 43 8a e2 be
       0.074022464 -2.126004 -0.74294657 -0.4424611
000160 7a 48 b8 3e d9 8c 97 3f 38 11 2f 3e 45 41 96 3f
       0.35992795 1.1839858 0.17096412 1.1738669
000170 c2 26 07 3f a7 1f 41 3d 92 e5 1a 3e 2a 2b ee 3f
       0.52793515 0.047149327 0.15126637 1.8606923
000180 06 18 8a 40 36 0a 73 bf 35 3a 24 3f 23 93 22 bf
       4.3154325 -0.94937456 0.64151317 -0.6350576
000190 00 70 fb 38 9c ae 85 3f 30 47 8c bf f9 31 c8 bd
       0.00011989474 1.0443912 -1.0959225 -0.097751565
0001a0 54 c0 e2 3d 58 9c 28 40 26 2f 9e bf d3 1d b2 3e
       0.1107184 2.6345425 -1.2358139 0.3478838
0001b0 48 b7 ae 3e f0 d3 24 3d e9 6a c4 bd 5e 8c 01 c0
       0.34124207 0.04024118 -0.09590704 -2.0241923
0001c0 45 89 98 3e 54 1c 8e be c9 02 d3 3f 1c ff 32 c0
       0.29792228 -0.27755988 1.6485225 -2.7968206
0001d0 31 26 22 3e ff 8d d4 3e 41 99 37 c0 bd 11 b8 bf
       0.15834881 0.41514584 -2.8687289 -1.4380413
0001e0 4b cb ce bd 2e 99 d0 3d dc 93 2b be b4 07 1b c1
       -0.10097369 0.10185467 -0.16755623 -9.689381
0001f0 4f 9d a7 3f 29 b2 78 3f 8c a3 30 3e c3 09 22 3e
       1.3094882 0.9714685 0.17249888 0.15824036
000200 25 07 30 c0 54 3a bc bf ad 52 b6 3f ba a0 ab bf
       -2.750436 -1.47053 1.4243981 -1.3408425
000210 40 0d 4f 3c 9c ab 2e 3f 3e 40 3f bf 37 97 1f 3d
       0.012637436 0.68230605 -0.747074 0.03896257
000220 b6 94 c4 bd fb 6f ee be 37 51 43 3e 38 30 04 bf
       -0.09598677 -0.4656981 0.1907395 -0.51636076
000230 db 16 c4 c0 c0 06 8c 3d a6 a3 fd 3c d8 e9 ea be
       -6.12779 0.06837225 0.030961823 -0.45881534
000240 69 9b 9a bf 1a 63 53 3e 6c 6f 8c bf d8 67 bc 3f
       -1.2078677 0.20643273 -1.0971503 1.4719191
000250 66 a6 19 40 1d 88 61 c0 10 6d 3e bf 83 35 4e 3f
       2.4007812 -3.5239327 -0.74385166 0.805504
000260 50 dd 6d bf 42 c0 ca 3f 4a 3d 8f be ec 13 15 3e
       -0.9291582 1.5839922 -0.27976447 0.14558381
000270 18 b7 81 bf c9 58 8c 3e fc fd 7c be 65 c6 d6 3e
       -1.0134001 0.27411488 -0.24706262 0.41948238
000280 19 95 d9 c0 ed ac 46 c0 ab 38 c5 3e 3b 2b 0f be
       -6.7994504 -3.1043046 0.38519797 -0.13981335
000290 94 71 04 3e 63 5c 1c 3f 6c 57 b6 bf 02 74 7b 3e
       0.12933952 0.6107847 -1.4245429 0.24555972
0002a0 f6 3d 63 3e fa e4 0e 3f d6 70 f5 3f e5 97 f1 3e
       0.22191605 0.5581814 1.917506 0.471862
0002b0 4e 07 5e c0 18 6e f6 bd bc fd 89 be 35 6d 3d 3f
       -3.4691958 -0.120327175 -0.26951396 0.7399476
0002c0 af 44 0f c0 2c 3a d7 3d 74 d5 9b 3f 4f 4b 08 bf
       -2.238567 0.10509142 1.2174516 -0.5323991
0002d0 8f a6 12 3f 85 84 3c 3f 15 a0 9a 3e e0 74 31 be
       0.572854 0.7363971 0.30200258 -0.1732974
0002e0 51 c9 24 3f 01 9f 02 c0 96 64 8d bd b6 72 77 3e
       0.64369684 -2.0409548 -0.06903951 0.24164852
0002f0 40 72 a4 bf d7 90 69 3f 84 c5 78 bd 55 e7 f0 be
       -1.2847366 0.91236633 -0.06073524 -0.47051492
000300 77 1f 4e be d9 07 4a be 2e eb ed bc 40 5b 58 be
       -0.2012919 -0.19729556 -0.029042806 -0.21128559
000310 64 3d df 3d a2 f2 30 bd e5 a3 a1 be 5c 5c 2b 3e
       0.10900381 -0.043200143 -0.31570354 0.16734451
000320 26 0c 0a be a6 a9 29 be 39 2f 4c be 13 04 c8 3d
       -0.13481197 -0.16568622 -0.19939889 0.09766402
000330 94 ba b6 be ec f4 61 be 4c 5b fc 3d 1d 57 37 be
       -0.35689223 -0.22066087 0.12322101 -0.17904325
000340 60 fd 13 be 6e da 8c be 2c 52 64 bd d4 c4 6a 3d
       -0.14452124 -0.275104 -0.055742428 0.057316616
000350 bb 8d 29 be 30 b5 bf 3c 6d d4 9f bd 4f 2f 1b be
       -0.16557972 0.023401827 -0.07804189 -0.15154766
000360 0a 00 24 3e 90 7b a1 3d 80 60 6e 3d a0 0a 1c bc
       0.1601564 0.07884896 0.0581975 -0.009524018
000370 ce c6 be bd 69 7c 10 3e e0 41 90 3c 81 f8 8e bc
       -0.09315263 0.14109959 0.017609537 -0.01745248
000380 af 85 35 3e 3c be 14 3e cc 20 e6 bd 4d d7 a4 be
       0.17726777 0.14525694 -0.11236724 -0.3219551
000390 20 2a a5 3d 80 24 56 be 83 5b c0 be 4a 4d 57 3e
       0.08064675 -0.20912361 -0.37569818 0.21025577
0003a0 74 ee 81 be 11 bc 9a 3e 93 bd b4 be 0d 21 a4 be
       -0.25377238 0.30221608 -0.35300884 -0.32056466
0003b0 4a a3 d6 3d 70 8a c1 3c 10 a8 08 be 21 2f 38 3d
       0.10480364 0.023625582 -0.13345361 0.04496682
0003c0 76 4e 8a be 3a d0 2c be 80 40 ab be e6 89 69 be
       -0.27012986 -0.16876307 -0.33447647 -0.2280651
0003d0 6c a6 86 be e5 54 86 3e f5 40 51 be c0 3d 4c 3c
       -0.26298845 0.26236644 -0.20434935 0.012465894
0003e0 88 d7 55 be 54 a9 8f bd 9a 0a 65 3e 51 c6 11 bc
       -0.20883 -0.07014719 0.22367325 -0.00889738
0003f0 64 61 17 3e 74 c8 eb 3c 79 89 7f be 0e a5 e6 3d
       0.14783245 0.028782107 -0.24954785 0.112619504

dec.0.bias f4 [32]
000000 2c 7d e6 3f 80 16 f3 3f 8b 92 82 3f 56 62 00 c0
       1.800695 1.8991241 1.0200971 -2.006002
000010 3c a2 a3 3e bb d6 63 3f be a7 b1 bd 1c dc 91 bd
       0.31959713 0.8899953 -0.086745724 -0.07122061
000020 56 20 d4 bd a4 e8 10 be bc be 8d bd 93 5d 8e bd
       -0.1035773 -0.14151245 -0.06921145 -0.069514416
000030 f8 78 41 40 90 06 00 40 5b b4 3e bf c3 2d 7d c0
       3.0230083 2.0004005 -0.7449395 -3.955918
000040 55 ee 2f be b1 e7 04 40 c3 ac a4 be a9 af ba 3f
       -0.1718076 2.0766413 -0.32163057 1.4584857
000050 b1 6d c6 3f b0 f5 c1 3d 5e 35 eb 3f dc d5 c2 bd
       1.5502225 0.09470689 1.8375661 -0.09513447
000060 67 4b 7f 3f 6e 69 b5 bd c2 a8 52 3f 54 7f 4e 40
       0.9972443 -0.08858 0.82288754 3.2265215
000070 6e 9b cd 3f a4 6e fa bd 9a e5 5c 3f 26 0c 37 bd
       1.6063058 -0.12228134 0.86287844 -0.04468932

dec.2.weight f4 [128, 32]
000000 8f 22 83 3f ed 07 a7 3d a5 42 49 3e c7 0d 00 3e
       1.0244921 0.081558086 0.19654329 0.12505256
000010 9e 26 c2 3f b1 84 fc bf 11 11 ac bd c8 55 9c bb
       1.5168035 -1.9727994 -0.08401693 -0.004770968
000020 14 5f 07 3e 24 21 61 be 5f 73 2a 3e ad 29 eb 3d
       0.13219863 -0.21985298 0.16645573 0.114825584
000030 d6 49 bb 3e c7 8c 7d c0 0c e0 3a 3f bb 2c c1 be
       0.3657977 -3.9617174 0.7299812 -0.3772944
000040 d3 e7 5f 3f 31 22 e8 be 13 7e dc be 6d 8c 90 3f
       0.8746311 -0.45338586 -0.43064937 1.1292855
000050 1d 5d ea 3f 29 28 b4 bf cb 65 d5 bf aa 7e 15 3e
       1.8309666 -1.4074756 -1.667169 0.145991
000060 e2 0a 9e 3d cb 1e a7 bd 85 d4 d6 bf 8f 45 c9 bf
       0.077169195 -0.0816017 -1.6783606 -1.5724353
000070 18 f8 05 bf d6 9d b6 3d 21 ed aa bf 47 75 2c be
       -0.52331686 0.089168236 -1.3353616 -0.16841613
000080 9d 74 21 bd d1 37 42 be e5 4b 8a 3c 4f 2e aa 3c
       -0.03941785 -0.18966605 0.016881892 0.020774035
000090 ce 5f bd bd 1b 04 13 3d 20 0c a2 3b 3c 78 c7 bd
       -0.09246789 0.035892587 0.004945293 -0.0973973
0000a0 35 ad 22 3e d8 6b fd 3d c5 d6 09 3e c0 88 08 be
       0.15886386 0.12374085 0.13460834 -0.13333416
0000b0 61 1b 1e be d4 bc 4e be ba d1 f2 3d 0c 4d e7 3d
       -0.15440132 -0.2018922 0.118564084 0.112939924
0000c0 a8 53 5a be b0 79 9b 3d 0b d5 03 3d 24 73 15 be
       -0.21320975 0.075915694 0.032185595 -0.14594704
0000d0 b5 06 c3 bd c6 e0 5f be b8 60 81 bd 16 84 90 3d
       -0.09522764 -0.21863088 -0.06317276 0.070564434
0000e0 4c bf a7 3c c9 b7 19 be 2b 85 8b 3c 1a c7 0f be
       0.02047696 -0.15011515 0.017031273 -0.14040795
0000f0 c0 0d 39 be f9 56 37 be e0 d2 08 3c de f0 11 be
       -0.18071651 -0.17904271 0.008351058 -0.1425204
000100 76 e1 50 bf 0e e9 cd 3e 99 83 1b 3f 41 d7 96 40
       -0.81594026 0.4021687 0.6074768 4.713776
000110 b0 f5 d9 3d 23 74 5d c0 87 24 99 bd bd 70 8d bd
       0.10642564 -3.4602134 -0.0747767 -0.06906269
000120 fa 0c 77 bc 64 05 42 3d 40 12 a2 3d 70 0a 07 3e
       -0.015078777 0.047368422 0.07913637 0.13187575
000130 1b f4 91 3e 4f 11 1b 3f 8c d6 e9 c0 a3 ab ad 3f
       0.2850655 0.60573286 -7.30744 1.3568004
000140 1e d4 a9 c0 2c cb a5 bf 35 6f 0a c0 47 e5 99 bf
       -5.307143 -1.2952628 -2.1630375 -1.2023095
000150 2f 00 b2 3f 56 2b 27 3f 7d 4e 55 3f ad 13 0b be
       1.3906306 0.653005 0.8332289 -0.13581724
000160 bc 4c b9 bf c4 43 ff 3d d8 48 d0 3e ae 50 63 bf
       -1.4476542 0.12464097 0.40680575 -0.8879498
000170 fe 76 ac bf 40 ee 57 3b cb 8b ea bf fe 7b 8a 3d
       -1.3473814 0.0032948405 -1.8323911 0.06761931
000180 6a f2 60 3d 11 90 21 be 5e b6 e1 bd ca 43 42 be
       0.054918684 -0.15777613 -0.11021112 -0.18971172
000190 0c ab 27 bd 2e 4a 9e 3b d8 5e 22 3d 7e 99 82 bd
       -0.040934607 0.0048306203 0.03964123 -0.063769326
0001a0 fa 7d 00 be 15 c7 cf bd 08 52 01 3e 95 c0 d7 bd
       -0.12548056 -0.10145394 0.12628949 -0.10534779
0001b0 f2 12 c6 bd fd fa 13 be 3e 62 6a be fb 8a b0 bc
       -0.09671582 -0.14451213 -0.22889039 -0.021550646
0001c0 80 07 0c 3d 73 09 91 3d 6b b0 1a be ce 36 36 be
       0.03418684 0.070818804 -0.1510636 -0.17794344
0001d0 39 e4 18 be 0d 9d 46 be 02 9d 9b bd 5c 24 13 3e
       -0.1493081 -0.19395848 -0.07598306 0.14369339
0001e0 21 d2 a2 bd ec b7 29 be be 63 c0 bd cf 2f 7e be
       -0.07950235 -0.16574067 -0.09394024 -0.24822925
0001f0 14 ff 83 3d 20 df 92 3c af ac 0d be 40 07 9f 3d
       0.06445137 0.01792866 -0.13835405 0.07765055
000200 ae d1 88 be 20 08 0d be a5 47 16 be 42 77 5e 3d
       -0.26722473 -0.1377263 -0.14675768 0.054312952
000210 33 12 ed 3d ed e3 fc bd a1 38 46 be 00 87 12 3d
       0.11575737 -0.12348161 -0.1935754 0.035773277
000220 e0 a7 df bd 2c da 32 3e 2c 93 55 bd 58 dd 57 bd
       -0.109206915 0.17466038 -0.052142307 -0.052701324
000230 eb 1a 93 bd 49 ef 23 3e 52 df bf 3d 83 16 a3 be
       -0.071828686 0.16009249 0.09368767 -0.31853113
000240 1c 11 ed bd 2b ad 21 bd 91 da 4d bd 3a 0e d6 bd
       -0.11575529 -0.039471786 -0.05025727 -0.10451932
000250 a2 d8 8a be a8 b0 86 be 04 b0 89 3d 80 38 38 3e
       -0.27118403 -0.26306653 0.067230254 0.17990303
000260 11 6d d3 bd b9 af e0 bd 60 f6 01 3d 57 39 d7 be
       -0.10323537 -0.109710164 0.031729102 -0.42035934
000270 78 8d 09 be de d7 02 be d2 38 62 bd 48 6f 28 3d
       -0.13432872 -0.1277766 -0.05522997 0.04112175
000280 b0 25 e0 3e b2 4b 3b bf b0 d4 15 bf 55 bb 09 bf
       0.43778753 -0.73162377 -0.5852766 -0.5380147
000290 fa 43 ae 3f ef 3e 1d bf 06 99 eb 3c 21 72 e7 3d
       1.3614495 -0.61424154 0.02875949 0.11301065
0002a0 b5 3f 0f 3c 8c 8d 17 3e 67 df dc bd 6d 4a 28 3e
       0.008743216 0.1480009 -0.10784798 0.16434641
0002b0 fa 75 fb be f8 c4 bd be b4 f8 9e be e6 c4 80 c0
       -0.49113446 -0.37064338 -0.3104912 -4.0240355
0002c0 8f 31 21 3f 75 e7 d5 bf 65 1a 03 c0 c7 9e a5 3e
       0.62966245 -1.671126 -2.048486 0.323477
0002d0 47 56 29 bf c9 5d 7d bf 15 66 9a 3f 77 52 1e be
       -0.66147274 -0.9897123 1.2062403 -0.15461145
0002e0 54 ee 22 3f b2 8a 84 bd d5 ac 09 3d 77 3e 6f bf
       0.6364491 -0.064717665 0.03361209 -0.9345469
0002f0 f1 77 97 be b9 fc 3f 3d e2 cb 17 bd fd 38 04 3e
       -0.29583696 0.046871874 -0.037059672 0.12912364
000300 c5 c5 ee bd 82 9e 3b be 7b 2f 0c 3b 3b 9c ab bd
       -0.11658815 -0.18322185 0.0021390605 -0.08379408
000310 00 b0 d1 38 9a cb 41 be 78 d7 31 3e 57 94 d0 bd
       9.998679e-05 -0.18925324 0.17367351 -0.101845436
000320 d8 52 8f bc 00 03 a1 3b af 4a ac bd b0 a1 eb 3d
       -0.017495558 0.0049136877 -0.08412682 0.11505449
000330 90 c0 42 be 77 7f 8b bd ae 6a 00 be 54 2d eb 3d
       -0.1901877 -0.06811421 -0.12540695 0.11483255
000340 26 09 5d be 06 ff 1c 3e d4 f5 56 be 36 3c 73 be
       -0.21585521 0.15331659 -0.20992213 -0.23753437
000350 cf 58 2b bd 53 39 61 be c1 8b 07 3e ba 3a 39 3e
       -0.04183274 -0.21994524 0.13236906 0.18088809
000360 22 ee f1 bd f4 38 14 3e 98 35 08 be aa a9 4f bb
       -0.11812998 0.14474851 -0.13301694 -0.003168682
000370 0f e7 12 be c0 ca 56 bc 76 04 9a bd 60 f2 31 3d
       -0.14345954 -0.013109863 -0.07520382 0.043444037
000380 77 a0 47 bf c0 59 5b bf bf cf db 3f 52 56 a7 bf
       -0.77979225 -0.8568382 1.7172774 -1.3073218
000390 b4 1d 4d 40 22 6e 36 c0 00 ef 92 3b 90 0c 08 3e
       3.204938 -2.850472 0.0044840574 0.13286042
0003a0 40 75 d2 3d 93 6f 02 be 30 fc 34 bc 9c b3 37 be
       0.1027627 -0.12737875 -0.011046454 -0.1793961
0003b0 55 c4 27 c0 0c de ae bf 51 65 50 3d 87 2b 18 c0
       -2.6213582 -1.3661513 0.050877873 -2.3776567
0003c0 09 6b b8 3f 43 1f c9 3d b0 59 61 3f 7c 73 c8 be
       1.4407665 0.09820416 0.8802748 -0.39150608
0003d0 6f a8 a8 3e 36 87 34 bc f9 7a df 3f 6c 41 18 3e
       0.32941005 -0.011018565 1.7459403 0.14868706
0003e0 36 97 de bf 70 df 53 bd a6 6a 98 bf 1b c5 64 3f
       -1.7389896 -0.05172676 -1.1907547 0.8936326
0003f0 ec a6 8d 3e fa 88 16 3e 12 b6 66 c0 d0 23 93 3d
       0.27666414 0.1470069 -3.6048627 0.07184565

dec.2.bias f4 [128]
000000 24 92 af bd 08 bd d0 bd 6a 98 e7 3f 52 49 da bd
       -0.08572796 -0.10192305 1.8093388 -0.10658516
000010 e2 6e 25 be e3 7a f8 3f db 24 44 bd 9c 8d 4c bf
       -0.1615558 1.9412502 -0.04788671 -0.7990358
000020 07 78 74 40 17 13 6f bd 94 48 c8 bd b6 79 cc bd
       3.819826 -0.058367815 -0.09779468 -0.09984152
000030 71 95 a0 bf 0b 93 fb bd 8c b3 65 40 00 84 38 be
       -1.2545606 -0.122839056 3.5890837 -0.18019104
000040 e1 31 02 bf 04 5c 1d be de d0 e7 be c8 2e 3c c0
       -0.5085736 -0.15367132 -0.4527654 -2.9403553
000050 09 bf ce bf 29 c0 dd bd 64 1d 95 be 9b 11 81 40
       -1.6152049 -0.10827667 -0.29123986 4.033399
000060 7b 89 0a be b2 4a 11 bf 44 23 3c c0 9a ee 91 c0
       -0.13529007 -0.567546 -2.9396524 -4.560376
000070 1f ef a3 3f a6 af 4d 40 11 01 98 3f 31 79 1d c0
       1.2807349 3.2138457 1.1875325 -2.460522
000080 ef 6d a1 40 e5 3f 1c 40 e9 93 61 3f 94 a7 cd be
       5.0446696 2.4413998 0.8811632 -0.40166914
000090 bb 44 0a be 14 a5 86 bd 5c b5 25 be 4b 9c 10 3d
       -0.13502781 -0.06574455 -0.16182464 0.035305303
0000a0 9a a8 eb bf af 32 9c 3f 29 9d 35 bf a4 72 cf bd
       -1.8410828 1.2202967 -0.7094293 -0.10129288
0000b0 26 d2 1f c0 cd 64 ae 3f 95 33 33 40 5f 01 1c be
       -2.4972014 1.3624512 2.8000233 -0.15234898
0000c0 8b 5e 89 3f 3c 06 c3 bd 47 e8 b0 3f de 31 5c 3f
       1.0731977 -0.095226735 1.3820885 0.8601359
0000d0 bc fd 0a c0 c2 d6 ae bd 05 93 74 bd e2 ce bf bf
       -2.1717367 -0.085370556 -0.05971052 -1.4985011
0000e0 10 55 9f bd ab a6 19 40 8c 25 c3 bd 56 a6 c2 bd
       -0.07779896 2.4007976 -0.09528646 -0.09504382
0000f0 d4 81 02 be b2 8f 1f bf 1a 82 2b c0 df 32 d1 be
       -0.12744838 -0.62328637 -2.6798158 -0.40859124
000100 b0 fc be 3f db 44 c2 3f 63 ec 0d 40 bb c4 91 bd
       1.4920864 1.5177263 2.217553 -0.071176015
000110 37 d5 1a be f8 e1 18 40 09 ef 2d c0 da 6e 0b be
       -0.15120398 2.388792 -2.7177145 -0.13616505
000120 57 0a 7f 3f 6a c1 d9 be 37 bd 2a 3d 5d ee 1f c0
       0.9962515 -0.42530376 0.041684356 -2.4989235
000130 97 14 02 bd 83 63 67 3f 70 12 bf 3f a6 51 b6 bd
       -0.031757917 0.9038622 1.4927502 -0.08902292
000140 6d e4 37 40 51 4f 04 be 4b 8e 51 bd 43 29 9c bd
       2.873317 -0.12920882 -0.05116109 -0.076250575
000150 88 62 37 3f 86 94 5d c0 db 67 18 c0 ac d8 19 40
       0.7163472 -3.4621902 -2.3813388 2.4038496
000160 8f a7 f9 3d db ff c3 3f b9 47 ba 3f d4 d3 9a bd
       0.121901624 1.5312456 1.4553138 -0.07559934
000170 6a 76 77 3f 9b fa 23 40 cf 12 16 40 de 30 d0 be
       0.9666506 2.5621707 2.344898 -0.40662283
000180 50 73 42 40 ef 40 52 bf ce ec 3b c0 11 dd 86 3f
       3.038288 -0.8213033 -2.9363284 1.0536214
000190 b3 01 fc 3f ca d0 fd be e4 79 81 40 bc 25 5c bd
       1.9688019 -0.49573356 4.046129 -0.053746924
0001a0 3b f2 2f 3e f8 a1 9c c0 5c e4 72 bd d2 53 c4 3d
       0.17182247 -4.8947716 -0.05929981 0.095863
0001b0 38 27 54 40 93 c3 8f bf 24 04 cf 3f c2 0b f1 bd
       3.3148937 -1.123156 1.6173139 -0.11769821
0001c0 4f 40 0f 3f 2b 9b 31 40 e0 7d b9 bd 26 5f 42 3e
       0.559575 2.7750957 -0.09057212 0.18981609
0001d0 11 c8 55 bf 31 fe 98 bd 98 0a cc 3e 89 de ae bf
       -0.835084 -0.07470358 0.39851832 -1.3661662
0001e0 55 22 9a 3c ef 85 ee 3f 79 23 12 40 12 77 58 bf
       0.018815199 1.8634623 2.283415 -0.84556687
0001f0 72 92 15 3e d2 c3 bb 3e f5 9c f4 3f 23 db 51 c0
       0.14606646 0.36672837 1.91104 -3.279
